SASRec/sasrec.pt (torch, 493578 bytes, 34 tensors)

item_emb.weight f4 [81, 64]
00000000: 0000 0000 0000 0000 0000 0000 0000 0000
00000010: 0000 0000 0000 0000 0000 0000 0000 0000
00000020: 0000 0000 0000 0000 0000 0000 0000 0000
00000030: 0000 0000 0000 0000 0000 0000 0000 0000
00000040: 0000 0000 0000 0000 0000 0000 0000 0000
00000050: 0000 0000 0000 0000 0000 0000 0000 0000
00000060: 0000 0000 0000 0000 0000 0000 0000 0000
00000070: 0000 0000 0000 0000 0000 0000 0000 0000
00000080: 0000 0000 0000 0000 0000 0000 0000 0000
00000090: 0000 0000 0000 0000 0000 0000 0000 0000
000000a0: 0000 0000 0000 0000 0000 0000 0000 0000
000000b0: 0000 0000 0000 0000 0000 0000 0000 0000
000000c0: 0000 0000 0000 0000 0000 0000 0000 0000
000000d0: 0000 0000 0000 0000 0000 0000 0000 0000
000000e0: 0000 0000 0000 0000 0000 0000 0000 0000
000000f0: 0000 0000 0000 0000 0000 0000 0000 0000
00000100: 1f85 a03e d8a3 92bf cc56 4cbd 2f4e aa3f
00000110: 0556 89bf 173d 03bf 0807 cb3f 2b34 463f
00000120: bc8a 423f d18e 8a3f 6600 18bf 09ad 17bf
00000130: 2590 033f 88c0 323c 3744 96be 8b00 1c3e
00000140: dec6 e13d 0245 c23f 8f9c 12bf d717 b93e
00000150: f7c2 99be 7ca8 67bf aea2 3a3f 7076 4abe
00000160: 98a3 743e 4c36 f43f d246 6abf 90e5 603f
00000170: 879b 003f 66aa bc3e b9ee dabf edea bbbd
00000180: a3f2 ccbf c624 bdbf d8b6 d4bd 9b06 54bf
00000190: f9e5 223f 602d 1240 f1e0 9cbf a45b b83e
000001a0: cbc6 0abf fc11 c73f 47ef 1fbf 8943 c4bf
000001b0: 567a cc3d d7b4 0540 3d8d 7f3f c6ff 82bf
000001c0: cf77 39be 8e67 fe3f cb98 93bf 54ca 8e3f
000001d0: 0958 81bf 8f8b 883f 1c3e 763f 0251 3bbf
000001e0: 36c6 71bf 8eaa 0b3f 8f57 743e 6b21 4bbf
000001f0: 732a 57bf e597 27be ec63 cabf 4b84 29bf
00000200: 393a ae3f 9b8c 70be ff92 f13e 1e11 ee3e
00000210: 71cd 53be b31c 4b3d 62b2 5cbe 67e0 84be
00000220: eef2 19bf ea45 463f c9ec 2dbf 8d3b c93f
00000230: 2b2c 503e e424 d2bf 6317 e43f 0ca0 043f
00000240: 8c3d c5be 3192 89bf b9eb a53f 9e02 cf3e
00000250: 8f9f 9a3e 6ef1 2dbf 81f7 9fbf 1560 febe
00000260: 59c2 993f 55d1 b03e 462d 5f3c b786 ac3f
00000270: 5bfe babf c577 903b 0ecd c8bf 2f63 f93d
00000280: ef6b 41bf 118b b83f 2cb7 603f 4ad7 c93f
00000290: 0e22 ba3f 93b9 4b3f 0028 273f 2c4a 1cbf
000002a0: f341 d13e 8533 533b 2754 b2bf fa76 45bf
000002b0: fccd b33e 5959 d23f d3eb 0e3f c267 713e
000002c0: a0ac ac3e 2795 f3be 6f28 44bf a651 d63e
000002d0: e42f 5c3f c32b 8d3d 67c5 523e d2ea 4d3f
000002e0: 32f3 05bf 4826 833e ab8c 14bf bb41 cd3e
000002f0: 7a4f babd 77cb 88bf 52f6 303f 2c1f af3e
00000300: 6f3f 43bf 75ff 2fbf 7853 933f e529 763e
00000310: f4dd b9bf 4a41 89bf 3570 9bbe 22c9 8a3f
00000320: 2f28 7dbe 1610 ecbe 1a0d 01c0 c902 dbbe
00000330: 5ecd f9be 8978 5bbe 52d1 dd3e 7abf 5abf
00000340: 6d45 b73d af46 99be db39 8fbf 28e7 213c
00000350: d7f8 c13d a86c b73f 843e 66be 6661 6dbd
00000360: ad3c f7be c78c f3bc 3bab c73e 551b 953f
00000370: e49a ee3f d959 7b3e 743b 9fbf 6957 003f
00000380: 16be 2e3f 7077 a23f 5393 01be 35ab f33e
00000390: cd3c fcbe 36ed 0240 edcd 5bbe 0a72 3fbf
000003a0: e93e 6cbf 95d9 61bf 4717 dfbf a69b 3e3f
000003b0: 08d6 e8be 7b5f b7be 3a2e 673f 7292 623f
000003c0: fd90 013f fc58 5c3f 1aff d13e 4893 6dbf
000003d0: d4d3 07bf 2d31 313f 02e6 a73f 3ec8 bf3f
000003e0: 07c0 88bc 82f9 cb3e 8d17 3dbf 10c9 e9be
000003f0: 8be2 d2bf 5ffe 8b3f 2048 bf3f ab1d 99bd
0.0 0.0 0.0 0.0 0.0 0.0 0.0 0.0
0.0 0.0 0.0 0.0 0.0 0.0 0.0 0.0
0.0 0.0 0.0 0.0 0.0 0.0 0.0 0.0
0.0 0.0 0.0 0.0 0.0 0.0 0.0 0.0
0.0 0.0 0.0 0.0 0.0 0.0 0.0 0.0
0.0 0.0 0.0 0.0 0.0 0.0 0.0 0.0
0.0 0.0 0.0 0.0 0.0 0.0 0.0 0.0
0.0 0.0 0.0 0.0 0.0 0.0 0.0 0.0
0.31351563 -1.1456251 -0.049887463 1.330511 -1.0729376 -0.5126509 1.5861521 0.7742335
0.7599294 1.0824834 -0.5937561 -0.59248406 0.5139182 0.010910161 -0.2934892 0.15234582
0.11024259 1.517731 -0.5727014 0.36151 -0.3003156 -0.9049146 0.7290448 -0.19771743
0.23890531 1.907907 -0.91514313 0.87850285 0.50237316 0.36848754 -1.7104102 -0.09175668
-1.6011547 -1.4776847 -0.10386437 -0.8282258 0.6363216 2.2840195 -1.2256147 0.36007416
-0.54209584 1.5552363 -0.62474483 -1.533311 0.09984271 2.0891626 0.9982489 -1.0234306
-0.1811211 1.9875352 -1.1531004 1.1155496 -1.0104991 1.066759 0.9618852 -0.73170483
-0.9444307 0.5455712 0.23861526 -0.79347867 -0.8404915 -0.16366537 -1.5811744 -0.6621749
1.3611518 -0.23491137 0.47182462 0.46497434 -0.20683838 0.049587917 -0.21552423 -0.25952455
-0.60136306 0.7745043 -0.6793943 1.5721298 0.20329349 -1.6417508 1.7819637 0.5180671
-0.3852352 -1.0747739 1.2962562 0.40431684 0.3019986 -0.6794652 -1.2497407 -0.4968268
1.2012435 0.34534708 0.013621634 1.3478612 -1.4608873 0.004408809 -1.5687578 0.12177121
-0.7555532 1.441744 0.877795 1.5768826 1.4541643 0.7958004 0.6529541 -0.6105068
0.40870628 0.0032226753 -1.3931931 -0.7713467 0.3511809 1.6433517 0.5582859 0.23574737
0.33725452 -0.47574732 -0.76624197 0.41859168 0.86010575 0.068931125 0.20583116 0.8043643
-0.5232421 0.25615144 -0.5802714 0.4008921 -0.0909719 -1.0687093 0.69125855 0.3420347
-0.76268667 -0.6874917 1.1509848 0.24039419 -1.452086 -1.072305 -0.30359045 1.0842631
-0.2472236 -0.46106023 -2.0164247 -0.42775562 -0.48789495 -0.214327 0.4332376 -0.8544842
0.08948789 -0.2993674 -1.1189531 0.009881772 0.094712906 1.4330034 -0.22484785 -0.057954215
-0.4828848 -0.029730214 0.38997826 1.1648966 1.8641019 0.24545993 -1.2440019 0.5013338
0.682588 1.26927 -0.12653856 0.47591558 -0.49265137 2.0457282 -0.21465273 -0.74783385
-0.92283493 -0.8822263 -1.7428979 0.7445625 -0.45475793 -0.35815033 0.9030491 0.8850471
0.5061186 0.8607328 0.4101494 -0.9280286 -0.530576 0.6921566 1.3117068 1.4982984
-0.016693128 0.39838797 -0.7386406 -0.4566121 -1.6475385 1.0937003 1.4943886 -0.07476362

pos_emb.weight f4 [50, 64]
00000000: 2daf 093f 0100 353e b9b7 5cbf 3876 663d
00000010: 55f2 8bbf cc66 7abf 3ad4 763e 1fe9 75bf
00000020: 12c1 cebf 70b2 cbbd df90 283e ef11 9c3e
00000030: b140 35bd 7e48 13be e2f6 52bf 1f17 b53f
00000040: b3ea 283e 8c54 78be 2a7c 10c0 9f4e cd3f
00000050: 222d ccbf 8855 8a3f 27fd aa3f 0cc2 e4bd
00000060: cd41 81bd 82d4 8abf b950 05bf 90ba 97bf
00000070: b504 b13e e391 4bbf 71f5 c53f 0485 ebbe
00000080: 049c 94bd e961 b63f b43e 6abe 1dad 3b3e
00000090: 6100 48bf 6e65 a9be 46c0 323e 0c4a aabe
000000a0: 784c 32bf 81c7 c7bf f0db 1840 73eb ca3e
000000b0: e299 87bf 9092 8f3f 1867 a93f 4efb 6d3f
000000c0: d4cf 00c0 a1ca 22bf d000 03c0 f8fe 103f
000000d0: e103 7ebf 3aa3 9b3f 6dff 933f 33f0 bd3f
000000e0: e980 17bf 6425 de3f 24fb a7be e976 193f
000000f0: 1caf febe 7606 31bf a297 8ebf 189f 06bf
00000100: 4777 313e 48ec 993e a90d 10bb c10e b4be
00000110: ac66 3abf 59f0 0c3e 3d8a 3dbf b522 06bf
00000120: 69a3 053f d40d 65bf eaf9 d63f 07df eabf
00000130: f8dd b93e 50fb 203e c9cb b1ba 8ea7 3d3f
00000140: 221b 233e 87b7 273f 7e88 debe 8d94 bcbe
00000150: 6508 d2bf c6c1 32c0 e8a7 953f 28c5 e13e
00000160: 6399 b2be 4f22 f6bd 28d7 ed3f ae30 6dbe
00000170: b4af 95bf f32a 353f 15e0 48be d998 c33f
00000180: 1e7f a73e 1e0d 51bf 6790 483e 4492 723f
00000190: 2265 0abf 9fde f9ba 468a 953f 1113 9b3f
000001a0: ad90 13bf fb36 7e3f 31fa 3e3f be93 9bbe
000001b0: 05c2 e0be be30 173f 7519 bfbe ef5b c9bf
000001c0: c707 0dc0 b1a2 7ebe 9977 873e da67 8dbe
000001d0: 6308 dfbf 2ac7 ca3f 5061 e1bf a6b7 8abf
000001e0: f003 9ebd 3b2a 39be 717f b9bd 401a d5bd
000001f0: 9f35 8abf 96f6 9b3e 02f2 d83f 6710 0c40
00000200: c8a2 e2be b94b 1fbf 9982 bdbf 0530 ca3d
00000210: 1f90 af3d fe13 53be bfb3 54bf 17bb 96be
00000220: e811 a7bf 0702 78bf 9469 153f 27ca c03f
00000230: 8c8a 26bf 9e1d 82be e9b0 9abf 39a8 6b3f
00000240: a353 92be 2ef4 41bf be47 b53f d834 cf3e
00000250: 57ac 2c3f 2ec6 abbe e4e8 08bf 618b 163f
00000260: 26a5 0cbe 5f4b 5d3f c259 653f 688d 8bbf
00000270: afc3 dc3f bafa 06bf 12ff 8fbe 33b8 423e
00000280: 4fd9 37bf 5f6c f33f afb2 2a3f 9a98 56bf
00000290: c587 d9be 9770 19bf 9432 893e 6951 17bf
000002a0: aa74 9b3f ad4f 00bf 4487 a93f a7fa e2be
000002b0: 97fc d33f e998 e6bf 2957 18be cde8 833f
000002c0: 1cc4 c93f 9065 96bd 8793 1cbf 0ca3 08be
000002d0: 55b8 e73f 43ac 603e e27d 103f eac7 0740
000002e0: b651 403f 3ea8 c9bf ae18 8e3e 3d4e 9d3c
000002f0: cd52 413d 6163 c1be b8de 41bf 9979 9ebd
00000300: 4499 fe3e aac4 283e 5f9d 90bf 29d8 543f
00000310: 5e77 933f c895 0b40 6fbc 99bf 226f 3440
00000320: 8a41 2a3f f491 05bf c0e4 693f 355b 383f
00000330: 6917 ee3f 1587 cf3e f319 833e be04 54bc
00000340: 57b4 bbbf dcb8 6dbf e47a f93f 474b a7bf
00000350: e621 4abf dfc1 21bf 408e b73f 59f8 89bf
00000360: bf4e ed3f 9e3b de3d 8e52 453e fe4e 9cbe
00000370: 2ece 1440 284b 8b3e 7e22 0abe 8e9a 443e
00000380: 0b63 273f b110 a03b 73fe 83be 4bff 6d3f
00000390: f112 733f 1871 c8be da8a 1240 b177 aabf
000003a0: b0db 1cc0 669c 7e3f e7dc 663f 2ca6 a53e
000003b0: 9ef6 573f fe1a 263f 308e 7bbf 6d39 fb3f
000003c0: 2b0b e7bd c320 b7be 8d2a 6fbe 90f7 7c3f
000003d0: f0c9 6cbf e7bc 9cbe 1727 6fbf d8ab 143c
000003e0: 66db 6ebf fe94 a2bf ee14 a23f e492 a63f
000003f0: 6529 e8bf 23bb 9d3f aac5 9f3a 71d9 59bf
0.5378292 0.17675783 -0.8621784 0.056265086 -1.0933329 -0.97813106 0.24104396 -0.9605884
-1.615267 -0.099461436 0.16461514 0.30482432 -0.044251148 -0.14383122 -0.82407963 1.4147681
0.1649578 -0.24251002 -2.2575784 1.6039618 -1.5951273 1.0807352 1.3358506 -0.11169824
-0.06311379 -1.0846102 -0.520763 -1.1853809 0.34573904 -0.7951948 1.5465528 -0.4599992
-0.0725632 1.424863 -0.22875482 0.18327756 -0.7812558 -0.33085197 0.17456159 -0.33259618
-0.6964793 -1.5607759 2.388424 0.39632758 -1.0593836 1.1216602 1.3234587 0.92961586
-2.0126848 -0.6359044 -2.0469246 0.5663905 -0.9922467 1.2159188 1.1562325 1.4838928
-0.59181076 1.7355161 -0.32808793 0.5994707 -0.49742973 -0.69150484 -1.1140025 -0.5258651
0.17330657 0.3006308 -0.0021980798 -0.35167506 -0.72812915 0.1376356 -0.7403906 -0.5239671
0.5220247 -0.89474225 1.6795018 -1.8349313 0.3630216 0.15720868 -0.0013564761 0.74083793
0.15928319 0.65514416 -0.4346351 -0.36832085 -1.6408812 -2.793077 1.1691866 0.4409573
-0.3488265 -0.120182626 1.8581285 -0.23163101 -1.1694245 0.7076866 -0.1961673 1.528102
0.3271417 -0.8166064 0.19586335 0.94754434 -0.54060566 -0.0019063539 1.1682823 1.2115194
-0.5764263 0.99302644 0.7460051 -0.30386156 -0.43898025 0.5905875 -0.3732411 -1.5731181
-2.2035997 -0.2486675 0.26458433 -0.27618295 -1.7424434 1.584203 -1.7607822 -1.0837295
-0.07715595 -0.18082516 -0.09057511 -0.104053974 -1.0797614 0.30461568 1.6948855 2.1885011
-0.44264817 -0.6222492 -1.480548 0.0987244 0.08572411 -0.20613095 -0.8308677 -0.29439613
-1.305234 -0.96878093 0.58364224 1.5061692 -0.65055156 -0.2541322 -1.2085239 0.9205356
-0.28579435 -0.75763214 1.4162519 0.40470004 0.6745047 -0.33549637 -0.5348036 0.58806425
-0.13734874 0.8644313 0.89590085 -1.0902529 1.7247218 -0.5272633 -0.2812429 0.19015579
-0.7181596 1.9017447 0.666789 -0.838266 -0.42486396 -0.59937423 0.267964 -0.591086
1.2144978 -0.50121576 1.3244405 -0.44331858 1.6561459 -1.8015414 -0.14876999 1.030542
1.5762973 -0.0734359 -0.6116261 -0.13343447 1.8103129 0.21940713 0.5644208 2.1215768
0.7512468 -1.5754468 0.27753204 0.019202346 0.047198106 -0.37771133 -0.75730467 -0.07738037
0.49726307 0.16481271 -1.1298026 0.83142334 1.1520803 2.181017 -1.201063 2.819283
0.66506255 -0.5217583 0.9136467 0.7201417 1.8600894 0.40532747 0.25605735 -0.012940584
-1.466441 -0.928602 1.9490628 -1.3069848 -0.78957975 -0.6318645 1.4340286 -1.0778915
1.8539656 0.10851215 0.19269773 -0.30529016 2.3250842 0.27205777 -0.1348972 0.19199583
0.653855 0.0048848023 -0.25780067 0.9296767 0.9495078 -0.39148784 2.2897248 -1.3317777
-2.4509087 0.99457395 0.9018082 0.32353342 0.8436068 0.64884937 -0.98263836 1.96269
-0.11281427 -0.35767183 -0.23356076 0.9881525 -0.9249563 -0.3061287 -0.9341902 0.009074174
-0.93303525 -1.2701719 1.2662637 1.3013577 -1.8137633 1.2322735 0.0012189646 -0.85097414

W_Q.weight f4 [64, 64]
00000000: 5049 083c 145c 6bbd 80a0 63bd 1c7b 07bd
00000010: 504d 423c f006 59bd 660d dd3d 8c75 5e3d
00000020: d4cd 853d c84f 5fbd c284 be3d b63d c43d
00000030: fc1d 09bd e61f b6bd b021 e1bc 2852 01bd
00000040: 80f1 d43d a04e 1e3c 7e88 febd 0044 083d
00000050: 302f 81bd 4ec4 c8bd 3000 cf3c 86e2 9dbd
00000060: 3833 d53c 8c78 2bbd d004 67bc c0d1 1cbd
00000070: b05c 88bd 1c34 82bd 8abb a1bd c633 f23d
00000080: e041 d6bc 00e3 aa3a 92f2 9a3d 9a70 df3d
00000090: f80f fdbc c6e4 bdbd 7008 9f3d d8f6 fcbd
000000a0: 0c16 68bd 5eae df3d 7cb7 c4bd 60fb 8b3b
000000b0: 1003 c43c b872 c4bc 200f 30bc be69 95bd
000000c0: b05a 54bd c0c4 ec3d 669d 983d c49d de3d
000000d0: eab1 bd3d c29b cb3d e423 abbd 92c5 82bd
000000e0: a046 a43d a0b6 75bc 8ac5 c53d 9848 553d
000000f0: cc08 393d 0cc6 ecbd a08a a13b 9665 9abd
00000100: 30b7 743c b4d4 72bd 00a8 e43c 14ed 38bd
00000110: a8b0 4bbd 6cc9 7a3d f006 4fbc 40fc f3bb
00000120: d63b f33d 2c43 e23d 905e 36bc 3028 513d
00000130: 1818 3bbd 2ce1 abbd 2054 883c 8ca7 2b3d
00000140: 5061 4c3c b6db c83d 0078 ceb9 e6be f9bd
00000150: 8efb 903d dc93 213d f020 df3d 140e 683d
00000160: 0653 cd3d 3413 613d c21a cf3d a490 613d
00000170: fa3b e9bd 3839 b43c e86e 9fbc 58ab 9c3c
00000180: e879 9ebd b021 5f3c 984d 54bd e4d2 c5bd
00000190: fc52 4cbd c2ba 8dbd ce65 efbd fe2d 813d
000001a0: 78ee f83d c09f 12bb a8c9 e2bc 00eb b8bc
000001b0: 2849 17bd 6cb4 4cbd 882d 41bd 8afd e73d
000001c0: 2045 eabd b260 c53d d4d5 70bd d693 b53d
000001d0: 50b4 d13c 70ba c8bc 88ab d83d 2062 2abc
000001e0: 60c0 4f3c 8054 073d 688e 40bd b422 a5bd
000001f0: 2046 af3b 68a4 c3bd 10a3 4bbd f4ac a9bd
00000200: 1063 a5bc d870 f3bc 1ca9 8b3d c455 a5bd
00000210: dec1 c83d 6a7a 96bd 10b4 a63d 941d 91bd
00000220: 70d5 c4bd 7204 9c3d 64bf 9bbd 7072 903d
00000230: f2bc d4bd c0dc 4dbb 6e12 e63d 524c 94bd
00000240: e038 b73c a015 05bd cead fdbd 9e95 d83d
00000250: 82e4 89bd 48a0 eb3d a283 afbd ce92 bbbd
00000260: c4bb 713d be16 ef3d a091 79bc 089d d53c
00000270: 9081 843d 525e 883d b879 35bd 5890 86bd
00000280: 52a1 b1bd dce7 bdbd de07 e03d fe20 9ebd
00000290: c83d edbd 4050 cebc d05c 353c 4c85 8e3d
000002a0: 20e6 bc3b 0671 fa3d 040e 6e3d 4008 183d
000002b0: 9089 5ebc c0d5 4e3c 606b cc3b 9816 653d
000002c0: 9c2e ff3d 5088 5c3d 8006 ef3d 84ae 2b3d
000002d0: 70b6 38bc d63d 9dbd b86f 8e3c 6a05 fb3d
000002e0: 3cf7 0b3d bc8c eabd 146f 95bd e024 f73c
000002f0: 8ae9 e63d 38fb 023d f0cf b1bc d888 3c3d
00000300: 421d a4bd 58a3 983c 4ce7 583d 842a 1c3d
00000310: 58d9 fe3c 7ed1 f4bd 2048 ab3c fa58 aa3d
00000320: ece7 7ebd 20cb cebb 50ed 88bc 9210 f43d
00000330: 7ae5 d2bd 6cad b33d 78ec 713d 908b 18bc
00000340: 78ae acbc 9c5c ad3d 286b 763d 3047 733c
00000350: dc53 c23d 4c1a 2ebd 947e b23d 9069 49bd
00000360: ced0 fc3d 980d b03c 6869 833d eaf7 bd3d
00000370: b87a d73c 101a 06bc 72f6 95bd 20e0 1f3c
00000380: c462 90bd 6648 e8bd deaf e73d 6053 e7bd
00000390: 4c90 09bd fce3 a3bd 00e4 083a 1497 6c3d
000003a0: 7811 5bbd 6045 40bc b090 303c 78f3 e0bc
000003b0: 70db 0c3d 74c6 a7bd b867 8dbc 84e4 8d3d
000003c0: c0d9 c63c a4b5 693d f84b 36bd 00f2 263b
000003d0: 6cad 6a3d 00b2 e63b 04fb cebd 7c3a ec3d
000003e0: c062 063c e8d5 acbc d640 99bd 32bc c0bd
000003f0: 100a c13c 3001 8fbc 426f f3bd d08f 913c
0.00831826 -0.05746086 -0.055572987 -0.03307639 0.011859253 -0.05298513 0.10793571 0.05431132
0.06533399 -0.054519445 0.09302665 0.09582083 -0.03347586 -0.08892803 -0.027481884 -0.03157249
0.10397625 0.0096623 -0.124283776 0.033267975 -0.063078284 -0.09803067 0.025268644 -0.077092215
0.0260254 -0.04186301 -0.0141002685 -0.03828597 -0.06658304 -0.06357595 -0.07897098 0.11826281
-0.026154459 0.0013037622 0.07565798 0.10910149 -0.030891404 -0.09272151 0.07765281 -0.12351769
-0.05666165 0.1092193 -0.09605309 0.0042719096 0.023927242 -0.023980483 -0.010745794 -0.07295559
-0.0518443 0.115609646 0.07451896 0.10869935 0.0926245 0.09941818 -0.08356455 -0.0638534
0.08021283 -0.0149971545 0.09656818 0.052071184 0.045174405 -0.11561212 0.0049298555 -0.07538907
0.014936253 -0.05928488 0.02791214 -0.04514797 -0.04972902 0.061227247 -0.012635931 -0.007445842
0.11876647 0.11047968 -0.011130944 0.051063716 -0.045677274 -0.083925575 0.016641676 0.041907832
0.012474373 0.098075315 -0.0003938079 -0.12194614 0.0707923 0.03944765 0.10894954 0.05665405
0.10025601 0.054949954 0.101125255 0.05506958 -0.11388393 0.02199994 -0.019462064 0.019124672
-0.077380955 0.013618872 -0.05183181 -0.09659365 -0.049883828 -0.06920387 -0.116893396 0.063076004
0.12154859 -0.002237305 -0.027684048 -0.022572994 -0.036935 -0.04997675 -0.047162563 0.113276556
-0.11438966 0.09637584 -0.058797672 0.08866088 0.025598675 -0.024502963 0.10579592 -0.010399371
0.012680143 0.03303957 -0.04701081 -0.0806326 0.0053489357 -0.095528424 -0.049716055 -0.08284941
-0.020188838 -0.029716894 0.068193644 -0.08072999 0.09802602 -0.073475674 0.08139813 -0.0708572
-0.096110225 0.076180354 -0.07604864 0.07053077 -0.10387601 -0.0031412095 0.11233984 -0.072411194
0.022365987 -0.032491326 -0.12386666 0.10575412 -0.067330375 0.115051806 -0.08570029 -0.0915886
0.059016958 0.116742596 -0.015232474 0.026075855 0.064700246 0.06658615 -0.044305533 -0.065705
-0.086733475 -0.09272739 0.109390005 -0.077211365 -0.115840495 -0.02518475 0.0110694915 0.06959018
0.0057647377 0.12228589 0.058118835 0.037117243 -0.013582602 0.012624204 0.006238386 0.05592975
0.12460062 0.053840935 0.11671162 0.041914478 -0.011273965 -0.0767781 0.017387256 0.12256892
0.034171328 -0.11452624 -0.07296577 0.03016895 0.11275013 0.031977862 -0.021705598 0.046028942
-0.08013393 0.018632576 0.052954957 0.038126484 0.031109497 -0.1195402 0.020908415 0.08317752
-0.062232897 -0.0063108355 -0.016714722 0.11917223 -0.102976754 0.08773312 0.059063405 -0.009310618
-0.021079287 0.084649295 0.060160786 0.014848515 0.09488651 -0.042505547 0.08715549 -0.049172938
0.12344514 0.021490857 0.06416589 0.092758015 0.026303634 -0.008184925 -0.07322396 0.009758025
-0.07050088 -0.11341934 0.11312841 -0.112951994 -0.033584878 -0.08002469 0.0005221963 0.057761267
-0.053483456 -0.01173529 0.010776684 -0.027459845 0.03438896 -0.08192149 -0.017261371 0.069283515
0.024273753 0.05705799 -0.044506043 0.0025473833 0.057294294 0.007040262 -0.10106471 0.115345925
0.008202255 -0.021098092 -0.074830696 -0.094108954 0.023564368 -0.017456621 -0.11886455 0.01776877

W_Q.bias f4 [64]
00000000: 5090 e13c 9805 0e3d 4642 e63d 304f f63d
00000010: a045 26bd d896 ab3d 7098 f33c d465 0d3d
00000020: 06ef d9bd d451 c23d 18d5 05bd 5a06 9dbd
00000030: 7031 ef3d 807f 3d3c b8e5 943c 4c8b 68bd
00000040: 209f 903d f006 b0bd 000e 333a 2266 88bd
00000050: c2ad febd 5e81 fbbd 3e99 863d ccf1 e5bd
00000060: 70a0 a6bc a4aa 7f3d d0e5 943c 9813 433d
00000070: 9814 cd3d fe46 b43d ee16 c83d cc6f 0d3d
00000080: 5643 8fbd 3093 a1bd 20de 61bd 00a0 adb7
00000090: d470 333d 4043 e43d a036 4b3d c4af 61bd
000000a0: 680a 80bd 4cf7 8abd 10b7 48bd 201d 923d
000000b0: 3052 7a3c a0c7 683d a8a6 5bbd 881b 2fbd
000000c0: a270 983d 44a9 f63d 7ebc c8bd 7ead 9c3d
000000d0: 0a48 af3d 4c86 7b3d 9c17 e7bd ae64 b13d
000000e0: 5cb2 0fbd 7855 bfbd 28eb c73d 00b5 3fba
000000f0: 24ed 173d 4828 a2bd 5204 9c3d 4e36 f8bd
0.027534634 0.034673303 0.112431094 0.120268226 -0.040593743 0.083783805 0.029735774 0.03452094
-0.10641293 0.09488264 -0.032673925 -0.07667227 0.11679351 0.011566043 0.018175945 -0.05677347
0.07061601 -0.08595073 0.0006830394 -0.06660105 -0.124354854 -0.12280534 0.065721974 -0.1122776
-0.020340174 0.062418595 0.01817599 0.047626108 0.100136936 0.08802603 0.097699985 0.034530446
-0.06995265 -0.07889402 -0.055143476 -2.0697713e-05 0.043808773 0.111456394 0.04961264 -0.055099264
-0.06251985 -0.067854494 -0.049002707 0.071344614 0.015278384 0.056831002 -0.053625733 -0.042750865
0.07443358 0.120440036 -0.09801577 0.076502785 0.08558662 0.061407372 -0.112838 0.08661781
-0.035082206 -0.09342474 0.09761649 -0.0007313043 0.03709139 -0.07917839 0.076180115 -0.12119733

W_K.weight f4 [64, 64]
00000000: 006c 8d3b c04d acbb d4f5 cebd 1c0f 043d
00000010: 0493 503d 387d 30bd 1cd0 f33d c0c9 88bd
00000020: d8df 8abc f063 913c ae10 e83d 66df d6bd
00000030: e241 b1bd 6a16 d33d 108c cb3c b053 3abc
00000040: 022d c8bd ce12 8abd 3061 43bd 3480 4e3d
00000050: 7615 883d 3836 94bd d441 59bd 0e2d f8bd
00000060: 26ba f33d 8aed cb3d 767e da3d 00c1 f6ba
00000070: 1823 8cbd 54e5 853d 8066 69bd b0a4 c03d
00000080: 3877 b23d 6e62 9cbd 284c 9f3c d077 09bd
00000090: 8a9f a9bd 2096 23bd 8e00 9b3d 464b 8fbd
000000a0: 80ae 62bc 6cf9 4abd 2c17 633d 2cad 8c3d
000000b0: 186e f9bc 70f0 c7bc e8b6 9d3c 60e0 b4bd
000000c0: f429 083d 3c73 663d 2648 bbbd 3c30 833d
000000d0: cc8e de3d 30b1 99bd ca00 d83d 30a8 10bd
000000e0: e468 223d 7068 953c d0d6 febc 1268 9dbd
000000f0: 84e7 dabd 7482 f73d 34e4 05bd 1ead 90bd
00000100: 70a9 963c 68bc b1bd 340e 6f3d 80ee 8d3b
00000110: 74e9 a63d 50d3 c4bc 04e3 4e3d f0d7 7bbc
00000120: e465 d43d 706c 85bd 701f ea3c 3481 0e3d
00000130: da6e 81bd 5a42 aebd d6c9 a9bd 9453 efbd
00000140: 7c96 60bd a098 f03d 9c4a b43d 1846 023d
00000150: 0834 d23d aeb3 9c3d 181b 90bd e87d cdbc
00000160: 40ba eb3d 94ab 67bd 1c43 febd 58e8 c13d
00000170: 38d4 e9bc 84be 86bd fa1a f63d 4866 d43d
00000180: b8da 813d d448 da3d 20ea d3bd 980f f43c
00000190: 3ef7 dd3d 60bd 713c e09d 903b 0828 54bd
000001a0: c87d d2bc 400d 103c 30c3 dbbc 4a6b 8cbd
000001b0: c6d7 d53d 3282 e93d eac5 b3bd 78ff f4bc
000001c0: 485b b3bc 6802 d4bd 5a63 b4bd 9859 a5bd
000001d0: d49a 8e3d 0011 3e3d 50d4 2b3c 00be 063a
000001e0: 8a83 d33d 467a 83bd 6e7c 843d 3245 efbd
000001f0: a049 823d f8ec 603d c246 f63d a448 c2bd
00000200: a66d 9fbd 608f 1fbc 8007 773c 8eee 873d
00000210: 60fa 9c3c f0bd d43d 403b fa3b 6aec ba3d
00000220: aacb b93d 5a71 f23d 6606 ff3d a0bb 44bd
00000230: 701b b9bd e012 99bd 9edb dbbd f489 febd
00000240: b858 11bd 10f9 58bd 107b fe3c 98db 72bd
00000250: ba4b 97bd e089 52bd e05e 903b aa90 a2bd
00000260: d236 8d3d 327b c8bd 88b5 fb3d 44b1 3abd
00000270: 8a88 af3d 00f2 7bbd 3ee3 cf3d 949b b6bd
00000280: 7022 1d3c 0081 993b 70d6 ca3d 909e 2cbc
00000290: 3810 7cbd 7891 bc3c 320a bfbd da02 9cbd
000002a0: 0836 373d 6666 f03d 4a34 803d f425 9ebd
000002b0: f86f cfbd be4e d13d 40f1 203c 5c45 38bd
000002c0: e08f 84bc e01c 1cbd 0e4e 80bd a8c7 e83c
000002d0: 6897 673d aaa8 f5bd c0c1 ecbd 1859 98bc
000002e0: 4c61 0e3d 1e7f ee3d 5406 bd3d f002 3cbd
000002f0: 0024 25ba 9cfd 20bd 10c2 9b3d b815 fa3d
00000300: 0029 9a3c 684a bebc 18df 36bd 0050 b03d
00000310: 584a 35bd 2011 dfbc 885b fb3c c072 473d
00000320: 202a 37bd 10b5 9b3d e082 0d3c d8fe 1dbd
00000330: 60b9 1a3c 009a 2cbc fcac 18bd acf2 403d
00000340: bc23 a5bd a284 92bd ce67 e63d 0039 31bb
00000350: dc1f 043d 167e cc3d 0aae cb3d dacd 843d
00000360: 7226 d7bd 46ef cbbd 0410 fbbd b00d a3bc
00000370: 641a b33d 5efb b4bd d0aa b73d f87b 303d
00000380: c4fa fe3d 86d2 ff3d a047 4fbc 900d 383c
00000390: baf6 f63d 6eb2 a5bd d477 093d 0ad0 b8bd
000003a0: 6e36 92bd 2446 ffbd c09a e6bc 56fa dbbd
000003b0: 7c61 e33d 68bc 30bd f8ed eb3c 50a0 71bc
000003c0: 001a d5bd 7048 73bd 8088 883d f86b ad3c
000003d0: a0a4 f53d 9877 f5bd 243b ed3d 9c95 9b3d
000003e0: e0a2 bbbb ecfd 2bbd 8034 e3ba dc1a b33d
000003f0: 987a a3bd 7637 8e3d dca1 873d f237 d93d
0.004315853 -0.005258292 -0.10105482 0.032240972 0.050921455 -0.043088168 0.11904928 -0.06679106
-0.01695244 0.01774785 0.113313064 -0.104918286 -0.08655144 0.103070095 0.02484706 -0.011372492
-0.097742096 -0.06741868 -0.047700107 0.050415233 0.06644718 -0.07236904 -0.053041294 -0.121179685
0.11900739 0.09957416 0.10668652 -0.0018825829 -0.06842631 0.065378815 -0.056982517 0.09406412
0.087141454 -0.076359615 0.019445494 -0.033561528 -0.08282383 -0.039938092 0.07568465 -0.06996779
-0.013835549 -0.049554273 0.05544202 0.068689674 -0.030448005 -0.024406642 0.019252256 -0.08831859
0.033243135 0.05626224 -0.091446206 0.06405684 0.1086708 -0.07504499 0.105470255 -0.035316646
0.039650813 0.018238276 -0.03110829 -0.076858655 -0.10688689 0.12085429 -0.032688335 -0.070642695
0.018391341 -0.08678514 0.058363155 0.00433141 0.081499964 -0.024026543 0.050509468 -0.015371308
0.103709966 -0.065148234 0.028579444 0.034791186 -0.063199714 -0.08508749 -0.0829045 -0.11685863
-0.054831013 0.11747861 0.08803293 0.031805128 0.102638304 0.07651459 -0.07036418 -0.02508445
0.11510134 -0.056560114 -0.12415144 0.09468144 -0.028543577 -0.06579307 0.12016864 0.10371071
0.063405454 0.10658422 -0.1034739 0.029792592 0.10838173 0.014754623 0.0044133514 -0.05179599
-0.025694743 0.008792222 -0.026826471 -0.06856401 0.10441546 0.11401786 -0.087779835 -0.029906973
-0.021894112 -0.103520215 -0.08808012 -0.08073729 0.06963125 0.04640293 0.010487631 0.00051400065
0.103278235 -0.06419806 0.064690456 -0.1168312 0.06361699 0.05491349 0.12025215 -0.09486511
-0.07784586 -0.009738773 0.015077472 0.066372976 0.019162357 0.1038779 0.0076364577 0.09127124
0.09072049 0.11838026 0.12452392 -0.048030496 -0.090384364 -0.07474303 -0.10735248 -0.12428656
-0.035485 -0.0529719 0.03106454 -0.059291452 -0.073874906 -0.05140102 0.004405841 -0.07937749
0.06895222 -0.09789123 0.12290484 -0.04557921 0.08570965 -0.061510086 0.10150765 -0.08916393
0.00959073 0.0046845675 0.09904182 -0.010535851 -0.061538905 0.023018584 -0.093281165 -0.076177314
0.044729263 0.11738281 0.06259973 -0.07722083 -0.10128778 0.10220097 0.0098231435 -0.04498802
-0.016181886 -0.038113475 -0.06264888 0.028415516 0.056540877 -0.11995061 -0.115603924 -0.01859717
0.03476076 0.116453394 0.092297226 -0.04590124 -0.0006299615 -0.03930436 0.07605374 0.12211174
0.018818378 -0.023228839 -0.044646353 0.08609009 -0.044260353 -0.027229846 0.030683294 0.04869342
-0.044717908 0.07602894 0.00863716 -0.038573116 0.009443611 -0.010534763 -0.037274346 0.04710643
-0.080634564 -0.07154204 0.11250268 -0.0027042031 0.032256946 0.099849865 0.09945305 0.064845756
-0.1050538 -0.09957747 -0.12258914 -0.019903988 0.08745268 -0.08837007 0.08968127 0.043086976
0.124501735 0.12491326 -0.012651354 0.011233702 0.12058778 -0.080906734 0.033561543 -0.09024055
-0.07139288 -0.1246455 -0.028149962 -0.10741107 0.11102578 -0.04314843 0.028799996 -0.014747694
-0.1040535 -0.059395254 0.0666666 0.021169648 0.1199429 -0.11985701 0.11583546 0.07596895
-0.0057262033 -0.041990206 -0.0017334372 0.087453574 -0.07982367 0.06944172 0.06622669 0.10606374

W_K.bias f4 [64]
00000000: 884b 5abd 3ee5 f13d a848 963c 8c40 28bd
00000010: 0058 d43d 76ed bd3d aa49 8a3d 8e76 c7bd
00000020: 06fd a73d f83b dcbd d4fa a7bd 5e96 f53d
00000030: 0057 f33a 206f c73c c8f7 c33c 8049 06bd
00000040: eaea 953d 7cf8 74bd d809 9bbd 243a 51bd
00000050: dc85 49bd d65e b03d 4e04 c13d 18d7 eabc
00000060: 3c78 80bd 6014 ec3b 709a dcbc 8c1a ff3d
00000070: eec3 9e3d a0b5 ea3b e4aa fd3d 3a81 c2bd
00000080: e4e9 06bd bc84 c93d a029 693c 5884 f4bc
00000090: c6f2 be3d 609a 87bd 8c0c b6bd 981d a93c
000000a0: e87e 81bd 0ed1 a6bd d09d 9e3d 64ff a6bd
000000b0: 502e 24bd 3ec0 873d 8064 4d3c d892 e3bd
000000c0: f8fd 8dbc c66c de3d 0066 42ba d0fe 5ebc
000000d0: 702c 1cbd a0ef cb3b 98db cebd 0cf1 12bd
000000e0: c0af 793c 72e9 b7bd 1070 d8bc f830 61bd
000000f0: 404c 7ebb 28bf 8fbd ec12 003d 96b0 fb3d
-0.05329469 0.118113026 0.018345192 -0.04107718 0.10368347 0.09273808 0.067523316 -0.097394094
0.08202557 -0.10753626 -0.082021385 0.11991571 0.0018565357 0.02434498 0.023921862 -0.03278494
0.07320197 -0.059807286 -0.07570237 -0.051080838 -0.049199924 0.086118385 0.09424649 -0.028667018
-0.06272933 0.0072045773 -0.02692911 0.12456235 0.07752214 0.0071627647 0.123861104 -0.09497304
-0.0329379 0.0983977 0.014231116 -0.029848263 0.09323649 -0.066212416 -0.08889112 0.020643994
-0.063230336 -0.08145343 0.07744944 -0.08154181 -0.04008323 0.06628464 0.012536168 -0.111119926
-0.017333016 0.10860591 -0.0007415712 -0.013610557 -0.038128316 0.006223634 -0.10100478 -0.03587441
0.015239656 -0.08980073 -0.026420623 -0.05497834 -0.0038802773 -0.07018882 0.031268045 0.122895405

W_V.weight f4 [64, 64]
00000000: 704a 8c3d 2e80 edbd 426f b03d 2c4d c43d
00000010: 686c 2bbd 3e3f b2bd fa05 cb3d 90ed 1bbd
00000020: ccdb 073d d88a 373d 84d3 a83d 70eb 73bd
00000030: 4099 953d 88fe a43c 8023 b8bd 8a5e b4bd
00000040: 50f3 523d 2e33 883d a8d7 febd 6e29 c53d
00000050: aeb4 bb3d 4cff f3bd a043 a5bd 4066 7bbd
00000060: 1c9c ce3d 4c31 a5bd eef7 afbd e061 173c
00000070: f476 5cbd e880 8ebd 12ff a3bd e47b 123d
00000080: 124b a53d 569f 973d 101f aebc 1cdc 163d
00000090: 6082 d1bb 1c82 db3d a47a 21bd 3649 ca3d
000000a0: acfd 0a3d 6e42 afbd e296 82bd 202a 553c
000000b0: 0afb d73d 8474 42bd e26c ecbd 1648 c6bd
000000c0: e2b3 f93d 9834 5dbd f245 e1bd 383e 54bd
000000d0: ce70 f9bd d2df 82bd d44a d13d b6ae d33d
000000e0: 00ae 483b c8c5 103d 00ae 123a d4ac bebd
000000f0: 20df f03c 2e95 debd 3a9e d53d 3023 553c
00000100: 00e2 2d3b d829 f53c a443 c53d 4a27 8abd
00000110: 4653 b53d 749d 7a3d de63 e13d aef8 b4bd
00000120: 88cf cf3c 107e ccbc 3487 2fbd f09e 873c
00000130: d022 1ebd eef0 e03d 10ed 2cbc 7c14 883d
00000140: 20fd b43c e22a fdbd 2892 38bd fee4 f43d
00000150: bc02 763d 8c86 ce3d 4098 d23d 3882 8abd
00000160: 0014 4abb 882c d7bd 80af 35bb 00ea db3a
00000170: 78aa aebd d01b ab3c da73 bdbd 7828 ca3d
00000180: 88d4 08bd ee54 f83d d69a ac3d ec1f 333d
00000190: 0080 df36 682f 8fbc a240 cb3d ac1b ef3d
000001a0: 4030 d83b c04a 833c c0e0 8a3c 6eff e1bd
000001b0: acd5 213d 0015 d73b 76b2 943d 48ce 9b3d
000001c0: c435 57bd 10c1 7abc 10ca 283c e0be 723c
000001d0: d05e a93d 1add 92bd 80af ffbb 2cd4 23bd
000001e0: 603e f93d a452 da3d 92f8 ac3d 92a6 b4bd
000001f0: 20de 20bd d084 42bc 82fe d5bd 7af4 e1bd
00000200: 5a99 c43d 5c9a 16bd 2862 ec3c 9296 b13d
00000210: 401e 56bb 76d0 9ebd 4c59 3fbd 78a5 143d
00000220: 08be a73d 807d 853a 9655 f9bd 8ca6 a03d
00000230: 4045 a4bd 6a68 e3bd 3ef8 8cbd f436 163d
00000240: a850 d9bd 7010 783d 4013 56bd de7f 893d
00000250: ac24 49bd 9ca4 a83d 5859 943d 06c8 a43d
00000260: 7ec4 cf3d a884 eabc 38e1 153d c81e 723d
00000270: c0a2 88bc d4be ee3d 98ad 7dbd a86c 493d
00000280: e8d5 bebd 3649 cb3d d8e2 413d 2cca 313d
00000290: cec4 dc3d a2c6 f6bd 0092 873d 463e ffbd
000002a0: ecb1 18bd a0ca ad3d ba24 b6bd 1805 1abd
000002b0: 3c95 d23d 905f 373d 101b b5bc f898 423d
000002c0: 907b 34bc 208b d43d e002 a23d e22b d3bd
000002d0: 6a36 b73d ac42 d83d 7864 db3d 7c62 0bbd
000002e0: ca8f 94bd e4c1 1f3d b8a9 8bbc a2da d23d
000002f0: 9c27 c53d d269 9a3d bafc dbbd 4c48 e83d
00000300: d05f 05bc 24af 023d e082 9d3d 5ed1 b9bd
00000310: 18a0 66bd 0a8f c83d b013 603d 70be 6bbc
00000320: 668a dfbd 00a6 9cba c473 d23d 7c63 c43d
00000330: 805d cfba a42d a73d 008e d639 5046 99bc
00000340: 10ff aa3d 005c 75b9 40a1 763d 00ab a7ba
00000350: 806d 1d3d 1ad7 b7bd 60de dabb c676 e7bd
00000360: 7e6e f2bd 4659 97bd 7416 e0bd a4a8 7c3d
00000370: 061f a23d 403e a13d a0d5 dbbc 929c fabd
00000380: 8e0a f73d b46e adbd c071 983c 0605 e8bd
00000390: 0463 2b3d 7a28 c03d aa7d a03d 70dd 2abd
000003a0: 5c8b f8bd 5421 28bd d413 03bd 1c3c 82bd
000003b0: c49b 48bd f072 4abd fa31 923d c056 b63c
000003c0: ccb0 9abd 9415 f13d a025 adbc c008 5cbc
000003d0: 229c b5bd 5ea0 fe3d 209e f7bb 1ceb 1cbd
000003e0: 8c1f 22bd bab9 f53d a414 a7bd 186b ce3c
000003f0: 76ad f2bd ae4f 8c3d 9245 eabd d0a4 52bd
0.06850135 -0.11596714 0.08614971 0.09585032 -0.04185143 -0.08703469 0.09913249 -0.038068354
0.0331686 0.044810146 0.082434684 -0.059550703 0.07304621 0.020140901 -0.08991146 -0.088070944
0.051501572 0.06650387 -0.12443477 0.09627043 0.09165321 -0.119139284 -0.08069539 -0.06137681
0.10088369 -0.08066043 -0.08592211 0.009239644 -0.05382438 -0.06958181 -0.08007635 0.035762683
0.08070959 0.07403438 -0.021255046 0.036831006 -0.0063937157 0.10718176 -0.0394236 0.09877245
0.033933327 -0.08557592 -0.06376435 0.013010532 0.10545929 -0.0474744 -0.11544205 -0.09681718
0.12192513 -0.054005235 -0.10999669 -0.05181715 -0.12179719 -0.063903466 0.102193505 0.10336058
0.003062129 0.03534487 0.0005595386 -0.09310308 0.02940327 -0.108682975 0.1043057 0.013008878
0.0026532412 0.02992718 0.09632042 -0.06745775 0.08853774 0.061185315 0.11005376 -0.088364944
0.025367513 -0.024962455 -0.04285355 0.01655528 -0.03860742 0.10983454 -0.010554567 0.06644532
0.022093356 -0.12361695 -0.04506126 0.11957739 0.0600612 0.100842565 0.10282946 -0.067631185
-0.0030834675 -0.105065405 -0.0027723014 0.0016778111 -0.08528608 0.020887285 -0.092506126 0.09871
-0.03340581 0.12125574 0.0842797 0.043731615 6.660819e-06 -0.01747866 0.09924437 0.116752
0.0065975487 0.016026855 0.016952872 -0.110350475 0.039510414 0.0065637827 0.07260601 0.076077044
-0.05254151 -0.015304819 0.010302082 0.014816016 0.08270037 -0.07171078 -0.0078029037 -0.039997265
0.121701 0.10660294 0.084458485 -0.08820833 -0.039274335 -0.011872485 -0.10448934 -0.11032958
0.09599562 -0.036768302 0.028855398 0.08671297 -0.003267184 -0.077546045 -0.04671602 0.036290616
0.081905425 0.0010184497 -0.12174527 0.07844266 -0.08021021 -0.111039 -0.06883286 0.0366735
-0.10611087 0.06056255 -0.052264452 0.06713842 -0.04910724 0.08234522 0.072436035 0.08045964
0.101449 -0.028627709 0.03659174 0.059111387 -0.016679168 0.11657491 -0.06193313 0.04917589
-0.09318143 0.09926073 0.047335476 0.043405697 0.10779725 -0.12049605 0.06619644 -0.124630496
-0.037279055 0.08485913 -0.08893724 -0.037602514 0.102823704 0.04476887 -0.022107631 0.047509164
-0.011015788 0.103780985 0.079107046 -0.10311104 0.089459255 0.10559592 0.10712522 -0.03402947
-0.07253988 0.039003268 -0.017048702 0.10295607 0.096266955 0.07539715 -0.10741563 0.113419145
-0.008140519 0.03190531 0.07690978 -0.09073137 -0.05630502 0.097929075 0.054706275 -0.014388666
-0.10915069 -0.0011951327 0.10275987 0.09589288 -0.0015820712 0.08163002 0.0004092306 -0.018710285
0.083494306 -0.00023399293 0.060212374 -0.0012792051 0.038434505 -0.08976574 -0.006679341 -0.11301951
-0.11837481 -0.073900744 -0.109417826 0.061684266 0.079160735 0.07873201 -0.026835263 -0.12236895
0.1206256 -0.084683806 0.018608928 -0.11329083 0.041842476 0.0938272 0.078364685 -0.041715086
-0.12135956 -0.04104741 -0.03200133 -0.06359121 -0.048976675 -0.04942602 0.071384385 0.022258162
-0.075532526 0.11771694 -0.021136105 -0.013429821 -0.088676706 0.12432931 -0.0075566918 -0.038310155
-0.039580867 0.11998315 -0.08158234 0.02519755 -0.11849491 0.06851135 -0.11439051 -0.05142671

W_V.bias f4 [64]
00000000: 58f8 a0bd e065 b7bb 98bc b0bd c04b 333b
00000010: 4053 4ebc 4230 ee3d d8fc ddbc e0bc e9bb
00000020: 78d0 803c 804c 1a3b 88d8 993d 00b3 463c
00000030: bcfc f13d 08c4 be3d 54f8 a73d a610 e13d
00000040: f87a 543d ccdf 4f3d c47e 86bd 08f8 3f3d
00000050: 602a 423d 680a d13c 8259 a23d 6476 aabd
00000060: e04f 6e3d 36a1 83bd ace6 193d d0c8 03bc
00000070: 1493 25bd 80a5 fabc ceff 80bd c63b f73d
00000080: 8071 403b 94b0 3d3d d016 cfbc 5038 263d
00000090: f0f3 513c 4c33 6cbd f2c4 d53d b6ec ff3d
000000a0: 0ad7 83bd 1c2f e43d 6e2b cabd 6083 e7bc
000000b0: 1013 d13c 221d 83bd a81f f0bd 78f1 4bbd
000000c0: 0ea0 98bd 687f 8c3d a0f9 04bd 0a5a dfbd
000000d0: e089 fb3b 8c54 4f3d 86a7 9ebd 98ef e8bd
000000e0: 4e2d 99bd 90cd 7cbd 60f2 94bd 6ecd f2bd
000000f0: 1ccf 973d d096 89bc 5085 1fbc 9085 673c
-0.07859868 -0.0055968612 -0.086297214 0.0027358383 -0.0125930905 0.11630298 -0.027098104 -0.0071331114
0.015724406 0.0023544133 0.07512003 0.012127638 0.118157834 0.09314734 0.08201662 0.109895036
0.051875085 0.05075054 -0.065671474 0.0468674 0.047403693 0.025517657 0.079272285 -0.083233625
0.058181643 -0.06427233 0.0375735 -0.008043483 -0.040423468 -0.030596495 -0.06298791 0.12071948
0.0029364526 0.046310976 -0.025279433 0.040581048 0.012814507 -0.057666108 0.10437955 0.12496321
-0.064375 0.11141798 -0.09871565 -0.028260887 0.025521785 -0.06402041 -0.11724788 -0.04979083
-0.07452403 0.06860238 -0.032464623 -0.109058455 0.007676348 0.05061774 -0.07746796 -0.11373824
-0.07479344 -0.061719477 -0.07272792 -0.11855589 0.0741255 -0.016795546 -0.009736374 0.014130965

attention_layernorms.0.weight f4 [64]
00000000: eecf 803f a64f 813f ca65 813f 482a 7f3f
00000010: 1530 7f3f b50f 803f 58f2 803f 72b5 813f
00000020: 1c13 813f 7aeb 7f3f 5719 803f 4d64 7e3f
00000030: 9f7e 7e3f fb5b 7f3f cc10 813f bdf4 7b3f
00000040: bcf8 803f 7417 813f 597e 7e3f a633 803f
00000050: 79dd 7e3f deff 813f 350b 7e3f b435 813f
00000060: 490c 813f b460 813f 0bd4 813f b4d0 803f
00000070: fc81 7f3f e644 823f 9d26 813f 68d3 813f
00000080: 5621 7f3f 4a17 7f3f cae8 813f 4895 7f3f
00000090: aa6a 803f 386e 813f d641 813f dc95 7f3f
000000a0: 0b88 7f3f e1c9 803f 626a 813f 77aa 803f
000000b0: 3041 813f b19e 7c3f 6534 7f3f 313f 813f
000000c0: 5050 813f 294e 803f 2232 7c3f 90db 7f3f
000000d0: d0fd 803f 0ef5 813f c8d1 813f 249f 823f
000000e0: 1bf7 803f 23dd 803f d49a 803f 9639 823f
000000f0: d88a 813f 8c72 813f f8c3 803f 6662 803f
1.0063455 1.0102432 1.0109189 0.9967389 0.9968274 1.0004793 1.0073957 1.0133498
1.0083957 0.99968684 1.0007733 0.99371797 0.9941196 0.99749726 1.0083251 0.98420316
1.0075908 1.0085282 0.9941154 1.0015762 0.9955669 1.015621 0.9923585 1.0094514
1.0081874 1.0107636 1.0142835 1.0063691 0.99807715 1.0177276 1.0089909 1.0142641
0.9966024 0.9964491 1.0149167 0.9983716 1.0032551 1.0111761 1.0098217 0.9983804
0.9981696 1.0061609 1.011059 1.0052022 1.0098019 0.98679644 0.9968932 1.009741
1.0102634 1.0023853 0.98513997 0.999444 1.0077457 1.015291 1.0142145 1.0204816
1.0075411 1.0067486 1.004725 1.0173824 1.0120497 1.0113082 1.0059805 1.0030029

attention_layernorms.0.bias f4 [64]
00000000: a812 933b 7df2 b23b d2d1 49bb 7435 893b
00000010: 55b2 dfbb dfb5 953b 3d35 31bc cdde 02bc
00000020: 5c43 703a 98e2 58bb 1f28 b43b d9d3 9f3b
00000030: 97a9 b9ba f02b 083c 587d c0bb ec63 1e3c
00000040: f442 06bc 63b2 4e3c 14f8 65bb 8513 b1ba
00000050: 5622 4abc 57dc 903a a92c 7bbc 7012 4a3c
00000060: 2e25 1abc 51d9 a9bb d4f7 6b3b fc68 43bb
00000070: 8bd7 a03b 9e07 b63a 6cbb 993b 46f5 163c
00000080: 8daa a8bc 8772 64bc 80af ff3a 2cf5 4f3b
00000090: 529d 163c 3676 8f3c 7ab8 c1bb c2a2 b0ba
000000a0: b6de a43b 4a00 413c 65ff 0d3c f163 143b
000000b0: 3e79 48bc 1ede 593b acb2 7b3b 69a5 7fbb
000000c0: 212a 59bc 5237 e539 baf6 afbb 6075 f83b
000000d0: 1c92 77bc de6c 073c 60c7 82bb e27d 863c
000000e0: e14b 573b a9bb a9ba befd c8ba 6854 c8bb
000000f0: fd52 0abc a488 05bc 8dfb e7ba fc16 07ba
0.004488308 0.0054610358 -0.0030795229 0.0041872803 -0.0068266788 0.0045688 -0.010815916 -0.00798769
0.0009165311 -0.0033094045 0.005497947 0.004877549 -0.0014164922 0.008311257 -0.005874317 0.009667378
-0.008194674 0.012615773 -0.0035090493 -0.0013509846 -0.012337288 0.0011051995 -0.015330472 0.012333497
-0.009408278 -0.005183377 0.0036005871 -0.0029817214 0.004908507 0.0013887768 0.004691532 0.009213751
-0.020589137 -0.013943321 0.0019507259 0.0031731827 0.0091927815 0.017512422 -0.005911884 -0.001347624
0.005031432 0.011779854 0.008666848 0.0022642578 -0.012235938 0.0033243964 0.0038406057 -0.0039008504
-0.013254673 0.000437195 -0.0053699883 0.0075823516 -0.015110519 0.008265702 -0.0039910525 0.016417447
0.0032851624 -0.0012949604 -0.001533441 -0.0061135776 -0.0084426375 -0.008150253 -0.0017698869 -0.0005153266

attention_layernorms.1.weight f4 [64]
00000000: 01c9 823f 6b4c 813f be13 823f 0393 823f
00000010: 73f1 803f fdd1 7e3f 60d5 7d3f a702 7e3f
00000020: 78a3 823f 03b6 803f 181c 823f c956 813f
00000030: e7a2 813f 313e 7c3f e803 7e3f 5fcf 7f3f
00000040: 6278 823f e88e 813f 93a6 7d3f 4c39 813f
00000050: 2c63 803f 351e 813f dee0 803f 43de 803f
00000060: ac5f 803f 2572 813f 9e1f 803f 70b5 813f
00000070: 306a 7f3f d9a0 7f3f 395e 7f3f 51b0 7f3f
00000080: 1194 7e3f 0a3a 803f fb96 7e3f edc1 813f
00000090: 5ca5 813f f4ca 803f 59d8 803f d1e2 7f3f
000000a0: 68d2 7f3f 74b8 803f 2323 803f a50e 813f
000000b0: 2384 813f cd8b 7f3f 7713 7d3f c635 7e3f
000000c0: ccf0 803f 015f 803f 880d 7d3f c26c 7e3f
000000d0: 3d8c 813f 3c55 813f d383 7d3f ae39 7e3f
000000e0: 042e 7e3f e877 803f d9b5 813f 3493 803f
000000f0: a813 813f 0700 803f 8020 833f f218 803f
1.0217592 1.0101446 1.0162275 1.0201114 1.0073684 0.99539167 0.9915371 0.992228
1.0206137 1.0055546 1.0164824 1.010461 1.0127839 0.98532397 0.9922471 0.999258
1.0192988 1.0121737 0.990823 1.0095611 1.0030265 1.0087343 1.0068624 1.0067829
1.0029197 1.0112959 1.0009649 1.0133495 0.99771404 0.9985481 0.9975315 0.9987841
0.9944468 1.0017712 0.9944913 1.0137306 1.0128589 1.0061936 1.0066024 0.9995547
0.9993043 1.0056291 1.0010723 1.0082594 1.011845 0.99822694 0.98857826 0.993008
1.0073485 1.0028993 0.9884877 0.993847 1.0120922 1.0104136 0.9902927 0.9930676
0.99288964 1.0036592 1.013362 1.0044923 1.0084124 1.0000008 1.0244293 1.0007613

attention_layernorms.1.bias f4 [64]
00000000: bb08 3dbb 5439 073c 4d10 7e3c 74c6 92bb
00000010: ec71 94bc 5394 c9bb 6edc 87ba 00d3 483c
00000020: 15b9 0fbc 10a7 f03b 8783 9d3c f5ff 49bc
00000030: 44ab 403c fd73 763c e887 f73b 12bc 253c
00000040: 1ed0 2c3c 5cf1 2c3c b6d3 9bbb 37b3 943b
00000050: dde0 d83a 09ae 3dbc 1bc8 20bc 22f7 f8bb
00000060: e45d 1dbb 998c f3bb d64b 1dbb 5d0b eb3b
00000070: 05a5 053c 5184 773a ed4e 833b f94b c63b
00000080: 9797 09bb 1283 263b 044f 11bb 162e 673b
00000090: c53d 1cbc 535c 423c 7cc8 47ba b09a d43b
000000a0: 25d2 923b a977 26bc b5fe 0a3c 3cce cf3b
000000b0: 4ce6 353c 9491 fe3b b76c a4bb e4fd 0abc
000000c0: 864c 483c 280a 083b f568 27bc 3629 d6bb
000000d0: 8396 50bc 061b 32bc f152 713a b35c 00bc
000000e0: 87c6 1b3b 51f0 bebb 316a 04bc e8b1 bcbb
000000f0: f619 96b9 f7c1 963b 774d 2f3b 59b3 d3ba
-0.0028844315 0.008253414 0.015506816 -0.004479224 -0.018120728 -0.006151715 -0.0010365376 0.012257338
-0.008772154 0.007344134 0.019227756 -0.012329091 0.011759583 0.015042302 0.007554043 0.01011564
0.010547666 0.010555591 -0.0047554625 0.0045379656 0.0016546507 -0.011577138 -0.009813334 -0.00759782
-0.0024012262 -0.007432532 -0.00240015 0.0071729855 0.0081570195 0.0009442019 0.0040072114 0.006051537
-0.0020994896 0.0025407714 -0.002217234 0.0035275272 -0.009536211 0.011862832 -0.0007621122 0.0064881667
0.0044806176 -0.010160365 0.008483578 0.0063417237 0.01110227 0.007768819 -0.0050178426 -0.008483384
0.012225276 0.0020758007 -0.010217895 -0.0065356744 -0.012731197 -0.010870701 0.00092057796 -0.007834601
0.0023769455 -0.005826988 -0.008081959 -0.0057585128 -0.00028629572 0.004600759 0.0026749054 -0.0016151472

attention_layers.0.in_proj_weight f4 [192, 64]
00000000: e8c3 4cbd 11dd c6bd a2e2 1b3d ef3f f4bd
00000010: 7017 f9bd d12d d23d 6afa ea3d 548e cb3d
00000020: 88bf 8a3d 9bbf d33d 644f 47bd bf14 1c3e
00000030: 21b6 24bb ac2b 8dbd 28d4 a4bc de02 2abc
00000040: 5349 853d 4b18 883d 5ba8 a83d 4f61 aa3d
00000050: 7ed0 de3d 7d19 ccbd e1bd 0c3e 168b d53d
00000060: 0d87 c73d d223 ffbd 4764 75bd ebe2 133e
00000070: 4857 643a 3a53 0d3e d2bb 163e a712 cebd
00000080: d34c e93c 120e b6bc 2171 2b3a eb92 9b3d
00000090: 1f57 c33d c95c e6bc 8117 fd3b 5d7f 153e
000000a0: 1cf2 dcbd e5c1 17bb 7fce 6a3c 9749 d6bb
000000b0: 9b55 803c 2d5f fdbd 286b 053e 53d8 dc3d
000000c0: 56ce 0d3e fa01 343d c789 13bc b451 ceba
000000d0: 3b20 fd3d d5de 0c3e fb5f 9cbd 5b6c 12be
000000e0: bd72 a0bd 55e7 e73b f35e f0bc d837 a83c
000000f0: 7455 c7bd 78ee 8e3a 35e3 133d eccc 84bc
00000100: bd9c 8c3c 7989 e83d 2575 75bd 9ba1 9e3d
00000110: 61d7 c93d b7c5 433d aac3 4dbc fbe3 1abc
00000120: 6d22 2fbd b85a 9a3d f3b4 f5bd 8679 b63d
00000130: dd46 03bd a7dd 073e fe7e 04be 9600 383d
00000140: 558d 983d 5a94 db3d dbef b539 97dd 11bd
00000150: bb83 873d 7705 c23d ece7 aa3c 8386 11be
00000160: 6de1 bebd 5e71 15be 966f 153e 7074 a13d
00000170: 7b30 953d 6b46 1c3d 7973 b4bc 82b5 c13d
00000180: cf28 3a3d 595f cd3d 86fe 6c3d e256 b8bd
00000190: 4911 223b 4722 193d 0819 dabc 5c84 343d
000001a0: 4df5 9bb9 5f3f d63d ba7f ba3d c15f 82bd
000001b0: c57f e93d f2bd 923c f278 83bb 9fa0 97bd
000001c0: 6798 90bd 4e87 e4bb 580d df3d 1ed3 b4bd
000001d0: 3789 09be 5a4b a43d 9a46 11be e707 c33d
000001e0: 3fdd e1bc f5ff 9abd c8e9 223d 6c23 f13d
000001f0: dfff a13d 6825 433d a8d7 743d 602c 063e
00000200: 8b6d f0bb dcc0 1dbe 8e54 11be 559e 103e
00000210: d2d8 dcbd 1dbf c8bd 210d f0bd 4895 05be
00000220: 1e13 873a dd25 eb3d 0bea 053d 20b3 aebb
00000230: 2d02 0dbd 6d7e c5bd 8a1e f33d 670a f53d
00000240: 0335 16bc 4cf1 b33b 4ef1 bebd c08a 73bc
00000250: 2448 5bbc 3816 183e 0d77 2abd 1162 c3bd
00000260: 0eff 9abd a7d9 e4bc 5414 223e 939c 103e
00000270: fcd9 4d3d 1679 9fbc 33f6 0abe fbfc 1fbd
00000280: 201e 6c3d 20e8 15bc 1233 253b 7149 09be
00000290: d262 7cbd 4163 be3d 5fca 78bd 425c 9f3d
000002a0: 24b1 303d bd7e 6b3b eb16 373b 788e 993d
000002b0: 2dae e83d d7d2 a23d 7c1e 3cbc 9602 923c
000002c0: ad54 833a c1bc 6fbb 9bf7 17be e1ce 653d
000002d0: 420e cebd e038 7ebd acd9 4e3d 8d71 8b3d
000002e0: ea4e 793d 9a8d 103d 6c9a cdbb 700d 3abd
000002f0: eca5 53bd d299 5ebd 01a5 bd3d 3295 ebbd
00000300: b8aa 5bbd 5785 08bb 01ce 1bbe bb56 a6bd
00000310: 98cb 8d3d 7df0 c6bd f4b5 b53c e4c0 1e3e
00000320: 40a2 093e 418c 8abd ce72 15be 2b5a 363d
00000330: cca7 18bd 18e8 18be c5a0 5cbd 7227 f4bd
00000340: 4783 2eba 535b 163d 50f0 4a3c 8963 143e
00000350: 08df 03be 9b2f d6bc 2fd9 213b 3b86 153e
00000360: b66e 49bd 392a ac3d 7736 bbbd fce0 983d
00000370: 51a7 5f3c 6e9f af3d 0e56 01be 73d4 f0bd
00000380: 099b 15bd 8d03 1fbe 8093 df3d 49d2 143e
00000390: 7616 a93d 2b8f 03be dafc 013e faa3 073e
000003a0: 2e8e 353d 335c 193e ba59 20be 91b1 c23c
000003b0: a74f c73d d5e4 903d 85d6 de3d 960b 0a3d
000003c0: 642f bcbd 3dcb 733d 7ec7 17be 04e2 053e
000003d0: 1710 68bd 9e32 bf3c 3a05 1bbe 56a1 f8bc
000003e0: d71c 9dbb bf0f d33d ce1b 94bd e95d a6bd
000003f0: 0089 b23c 18c3 293e 7e32 45bc 2846 3e3d
-0.04999152 -0.09710134 0.03805793 -0.11926257 -0.121626735 0.10262645 0.11473544 0.09939256
0.06774813 0.1033928 -0.048659697 0.15242289 -0.0025132971 -0.068930954 -0.020120695 -0.01037666
0.06508126 0.066452585 0.08235236 0.083193414 0.108796105 -0.09965799 0.13744308 0.10426919
0.09742556 -0.12458004 -0.059910085 0.14442031 0.00087105157 0.1380128 0.14720085 -0.100621514
0.028479015 -0.022223506 0.000653999 0.07596382 0.095381014 -0.028120415 0.007723749 0.14599366
-0.10788366 -0.0023156342 0.014331459 -0.0065395343 0.01566582 -0.12371669 0.13029158 0.10783448
0.13848242 0.043947197 -0.009005017 -0.0015740902 0.12359663 0.13756879 -0.07635494 -0.14299147
-0.078343846 0.0070771375 -0.02934215 0.02053444 -0.09733096 0.001090481 0.036105353 -0.016210996
0.017164582 0.11354346 -0.05992617 0.077456675 0.098555334 0.047795977 -0.012558857 -0.009453769
-0.04275744 0.075368345 -0.11997404 0.089098975 -0.032050002 0.13268147 -0.12939069 0.044922434
0.07448832 0.10721655 0.00034701717 -0.035611715 0.066169225 0.094736986 0.020862542 -0.14211468
-0.0932034 -0.14594027 0.14593348 0.07883537 0.072846375 0.038153093 -0.022027718 0.09458448
0.045449074 0.10027952 0.05785992 -0.090009466 0.002472954 0.037386205 -0.026623264 0.04407154
-0.00029746667 0.10461306 0.09106393 -0.0636592 0.11401323 0.017912839 -0.0040122205 -0.07403683
-0.070603184 -0.0069741374 0.10891217 -0.0882933 -0.1343125 0.08022185 -0.14187089 0.095229916
-0.027571319 -0.07568351 0.039773732 0.11774334 0.07910132 0.047643095 0.05977598 0.13102865
-0.0073372773 -0.15405601 -0.14192411 0.14122899 -0.10783543 -0.09802077 -0.11721254 -0.13045228
0.001030538 0.11481831 0.032693904 -0.005331412 -0.034425903 -0.096432544 0.11871059 0.11964875
-0.009167912 0.0054914113 -0.09323369 -0.014864624 -0.013383899 0.14852226 -0.041617442 -0.09540189
-0.07568179 -0.027935816 0.15828067 0.14122228 0.050256714 -0.019466918 -0.1357048 -0.03905962
0.057645917 -0.009149581 0.0025207442 -0.13406922 -0.06161768 0.09296275 -0.06073987 0.07781269
0.043137684 0.0035933696 0.0027937244 0.07497877 0.113613464 0.07950371 -0.011481877 0.017823499
0.0010019742 -0.0036581012 -0.14840548 0.0561055 -0.10061313 -0.06206596 0.050500557 0.068087675
0.060866274 0.03529129 -0.006274512 -0.04542297 -0.051671907 -0.054345913 0.092599876 -0.11503066
-0.053629607 -0.002083143 -0.15215303 -0.08122011 0.06923598 -0.09713838 0.022181489 0.1550327
0.134408 -0.067650326 -0.14594576 0.044519585 -0.0372694 -0.14932287 -0.05386426 -0.11921586
-0.0006657135 0.036708187 0.0123863965 0.14491095 -0.12878048 -0.026145747 0.0024696102 0.14601986
-0.049177848 0.08406491 -0.09141248 0.07464787 0.013650731 0.08575331 -0.12630484 -0.117592715
-0.036524806 -0.15528698 0.10916805 0.14533342 0.08256237 -0.12847583 0.12694111 0.13246146
0.044325046 0.14976577 -0.15659228 0.02376631 0.09731989 0.07074896 0.1088076 0.033702455
-0.091887265 0.059519995 -0.14822194 0.130745 -0.05665597 0.023339566 -0.15138713 -0.030350368
-0.0047946977 0.10305738 -0.07231866 -0.08123381 0.021793842 0.16578329 -0.012035964 0.046453625
